…
        "\n",
        "disc = Discriminator().to(device)\n",
        "disc_opt = torch.optim.Adam(disc.parameters(), lr=lr)"
      ]
    },
    {
      "cell_type": "code",
      "execution_count": null,
      "metadata": {
        "colab": {
          "base_uri": "https://localhost:8080/"
        },
        "id": "pzm7ocQhheaK",
        "outputId": "82e814dd-14f9-4936-a5f3-64e137e229d3"
      },
      "outputs": [
        {
          "data": {
            "text/plain": [
              "Generator(\n",
              "  (gen): Sequential(\n",
              "    (0): Sequential(\n",
              "      (0): Linear(in_features=64, out_features=128, bias=True)\n",
              "      (1): BatchNorm1d(128, eps=1e-05, momentum=0.1, affine=True, track_running_stats=True)\n",
              "      (2): ReLU(inplace=True)\n",
              "    )\n",
              "    (1): Sequential(\n",
              "      (0): Linear(in_features=128, out_features=256, bias=True)\n",
              "      (1): BatchNorm1d(256, eps=1e-05, momentum=0.1, affine=True, track_running_stats=True)\n",
              "      (2): ReLU(inplace=True)\n",
              "    )\n",
              "    (2): Sequential(\n",
              "      (0): Linear(in_features=256, out_features=512, bias=True)\n",
              "      (1): BatchNorm1d(512, eps=1e-05, momentum=0.1, affine=True, track_running_stats=True)\n",
              "      (2): ReLU(inplace=True)\n",
              "    )\n",
              "    (3): Sequential(\n",
              "      (0): Linear(in_features=512, out_features=1024, bias=True)\n",
              "      (1): BatchNorm1d(1024, eps=1e-05, momentum=0.1, affine=True, track_running_stats=True)\n",
              "      (2): ReLU(inplace=True)\n",
              "    )\n",
              "    (4): Linear(in_features=1024, out_features=784, bias=True)\n",
              "    (5): Sigmoid()\n",
              "  )\n",
              ")"
            ]
          },
          "execution_count": 13,
          "metadata": {},
          "output_type": "execute_result"
        }
      ],
      "source": [
        "gen"
      ]
    },
    {
      "cell_type": "code",
      "execution_count": null,
      "metadata": {
        "colab": {
          "base_uri": "https://localhost:8080/"
        },
        "id": "JzjJLPNgpBqN",
        "outputId": "7e3a70c1-b9fc-43cd-90b2-14a27c7f435d"
      },
      "outputs": [
        {
          "data": {
            "text/plain": [
              "Discriminator(\n",
              "  (disc): Sequential(\n",
              "    (0): Sequential(\n",
              "      (0): Linear(in_features=784, out_features=1024, bias=True)\n",
              "      (1): LeakyReLU(negative_slope=0.2)\n",
              "    )\n",
              "    (1): Sequential(\n",
              "      (0): Linear(in_features=1024, out_features=512, bias=True)\n",
              "      (1): LeakyReLU(negative_slope=0.2)\n",
              "    )\n",
              "    (2): Sequential(\n",
              "      (0): Linear(in_features=512, out_features=256, bias=True)\n",
              "      (1): LeakyReLU(negative_slope=0.2)\n",
              "    )\n",
              "    (3): Linear(in_features=256, out_features=1, bias=True)\n",
              "    (4): Sigmoid()\n",
              "  )\n",
              ")"
            ]
          },
          "execution_count": 14,
          "metadata": {},
          "output_type": "execute_result"
        }
      ],
      "source": [
        "disc"
      ]
    },
    {
      "cell_type": "code",
      "execution_count": null,
      "metadata": {
…
